ir_version: 8
producer_name: "pytorch"
producer_version: "CURRENT_VERSION"
graph {
  node {
    output: "onnx::STFT_1"
    name: "Constant_0"
    op_type: "Constant"
    attribute {
      name: "value"
      t {
        data_type: 7
        raw_data: "\004\000\000\000\000\000\000\000"
      }
      type: TENSOR
    }
  }
  node {
    output: "onnx::STFT_2"
    name: "Constant_1"
    op_type: "Constant"
    attribute {
      name: "value"
      t {
        data_type: 7
        raw_data: "\020\000\000\000\000\000\000\000"
      }
      type: TENSOR
    }
  }
  node {
    output: "onnx::Unsqueeze_3"
    name: "Constant_2"
    op_type: "Constant"
    attribute {
      name: "value"
      t {
        dims: 1
        data_type: 7
        raw_data: "\000\000\000\000\000\000\000\000"
      }
      type: TENSOR
    }
  }
  node {
    input: "x"
    input: "onnx::Unsqueeze_3"
    output: "onnx::STFT_4"
    name: "Unsqueeze_3"
    op_type: "Unsqueeze"
  }
  node {
    output: "onnx::STFT_5"
    name: "Constant_4"
    op_type: "Constant"
    attribute {
      name: "value"
      t {
        dims: 16
        data_type: 1
        raw_data: "…"
      }
      type: TENSOR
    }
  }
  node {
    input: "onnx::STFT_4"
    input: "onnx::STFT_1"
    input: "onnx::STFT_5"
    input: "onnx::STFT_2"
    output: "onnx::Transpose_6"
    name: "STFT_5"
    op_type: "STFT"
    attribute {
      name: "onesided"
      i: 1
      type: INT
    }
  }
  node {
    input: "onnx::Transpose_6"
    output: "onnx::Squeeze_7"
    name: "Transpose_6"
    op_type: "Transpose"
    attribute {
      name: "perm"
      ints: 0
      ints: 2
      ints: 1
      ints: 3
      type: INTS
    }
  }
  node {
    output: "onnx::Squeeze_8"
    name: "Constant_7"
    op_type: "Constant"
    attribute {
      name: "value"
      t {
        dims: 1
        data_type: 7
        raw_data: "\000\000\000\000\000\000\000\000"
      }
      type: TENSOR
    }
  }
  node {
    input: "onnx::Squeeze_7"
    input: "onnx::Squeeze_8"
    output: "9"
    name: "Squeeze_8"
    op_type: "Squeeze"
  }
  name: "torch_jit"
  input {
    name: "x"
    type {
      tensor_type {
        elem_type: 1
        shape {
          dim {
            dim_value: 32
          }
        }
      }
    }
  }
  output {
    name: "9"
    type {
      tensor_type {
        elem_type: 1
        shape {
          dim {
            dim_value: 9
          }
          dim {
            dim_value: 6
          }
          dim {
            dim_value: 2
          }
        }
      }
    }
  }
}
opset_import {
  version: 17
}
